…
Unity Academy name: Academy
        Number of Brains: 1
        Number of External Brains : 1
        Lesson number : 0
        Reset Parameters :
		
Unity brain name: TennisBrain
        Number of Visual Observations (per agent): 0
        Vector Observation space type: continuous
        Vector Observation space size (per agent): 8
        Number of stacked Vector Observation: 3
        Vector Action space type: continuous
        Vector Action space size (per agent): 2
        Vector Action descriptions: , 
[2019-07-09 20:48:50,655] [INFO] [ddpg.py:88] architecture of model actor_local: Actor(
  (fc1): Linear(in_features=24, out_features=400, bias=True)
  (bn1): BatchNorm1d(400, eps=1e-05, momentum=0.1, affine=True, track_running_stats=True)
  (fc2): Linear(in_features=400, out_features=300, bias=True)
  (fc3): NoisyLinear(in_features=300 out_features=2, bias=True)
)
[2019-07-09 20:48:50,656] [INFO] [ddpg.py:88] architecture of model actor_target: Actor(
  (fc1): Linear(in_features=24, out_features=400, bias=True)
  (bn1): BatchNorm1d(400, eps=1e-05, momentum=0.1, affine=True, track_running_stats=True)
  (fc2): Linear(in_features=400, out_features=300, bias=True)
  (fc3): NoisyLinear(in_features=300 out_features=2, bias=True)
)
[2019-07-09 20:48:50,656] [INFO] [ddpg.py:88] architecture of model critic_local: Critic(
  (fc1): Linear(in_features=24, out_features=400, bias=True)
  (bn1): BatchNorm1d(400, eps=1e-05, momentum=0.1, affine=True, track_running_stats=True)
  (fc2): Linear(in_features=402, out_features=300, bias=True)
  (fc3): Linear(in_features=300, out_features=1, bias=True)
)
[2019-07-09 20:48:50,656] [INFO] [ddpg.py:88] architecture of model critic_target: Critic(
  (fc1): Linear(in_features=24, out_features=400, bias=True)
  (bn1): BatchNorm1d(400, eps=1e-05, momentum=0.1, affine=True, track_running_stats=True)
  (fc2): Linear(in_features=402, out_features=300, bias=True)
  (fc3): Linear(in_features=300, out_features=1, bias=True)
)
[2019-07-09 21:12:14,563] [INFO] [main.py:157] model saved to directory: run/model/Jul09_20-48-46_0_8066
[2019-07-09 21:18:27,766] [INFO] [main.py:157] model saved to directory: run/model/Jul09_20-48-46_0_8166
[2019-07-09 21:27:07,075] [INFO] [main.py:157] model saved to directory: run/model/Jul09_20-48-46_0_8266
[2019-07-09 21:31:49,830] [INFO] [main.py:157] model saved to directory: run/model/Jul09_20-48-46_0_8366
…
